…
bs).item()\n","\n","  return predicted_label"]},{"cell_type":"code","execution_count":35,"metadata":{"colab":{"base_uri":"https://localhost:8080/"},"executionInfo":{"elapsed":343,"status":"ok","timestamp":1702765839779,"user":{"displayName":"William Bednarz","userId":"00617103987207504141"},"user_tz":300},"id":"V9g-dGb1yaWM","outputId":"ffef7a3e-a7ee-435c-b1aa-88cb2951f538"},"outputs":[{"output_type":"execute_result","data":{"text/plain":["BertClassifier(\n","  (bert): BertForSequenceClassification(\n","    (bert): BertModel(\n","      (embeddings): BertEmbeddings(\n","        (word_embeddings): Embedding(30522, 768, padding_idx=0)\n","        (position_embeddings): Embedding(512, 768)\n","        (token_type_embeddings): Embedding(2, 768)\n","        (LayerNorm): LayerNorm((768,), eps=1e-12, elementwise_affine=True)\n","        (dropout): Dropout(p=0.1, inplace=False)\n","      )\n","      (encoder): BertEncoder(\n","        (layer): ModuleList(\n","          (0-11): 12 x BertLayer(\n","            (attention): BertAttention(\n","              (self): BertSelfAttention(\n","                (query): Linear(in_features=768, out_features=768, bias=True)\n","                (key): Linear(in_features=768, out_features=768, bias=True)\n","                (value): Linear(in_features=768, out_features=768, bias=True)\n","                (dropout): Dropout(p=0.1, inplace=False)\n","              )\n","              (output): BertSelfOutput(\n","                (dense): Linear(in_features=768, out_features=768, bias=True)\n","                (LayerNorm): LayerNorm((768,), eps=1e-12, elementwise_affine=True)\n","                (dropout): Dropout(p=0.1, inplace=False)\n","              )\n","            )\n","            (intermediate): BertIntermediate(\n","              (dense): Linear(in_features=768, out_features=3072, bias=True)\n","              (intermediate_act_fn): GELUActivation()\n","            )\n","            (output): BertOutput(\n","              (dense): Linear(in_features=3072, out_features=768, bias=True)\n","              (LayerNorm): LayerNorm((768,), eps=1e-12, elementwise_affine=True)\n","              (dropout): Dropout(p=0.1, inplace=False)\n","            )\n","          )\n","        )\n","      )\n","      (pooler): BertPooler(\n","        (dense): Linear(in_features=768, out_features=768, bias=True)\n","        (activation): Tanh()\n","      )\n","    )\n","    (dropout): Dropout(p=0.1, inplace=False)\n","    (classifier): Linear(in_features=768, out_features=2, bias=True)\n","  )\n",")"]},"metadata":{},"execution_count":35}],"source":["device = torch.device('cuda:0' if torch.cuda.is_available() else 'cpu')\n","model.to(device)"]},{"cell_type":"code","execution_count":24,"metadata":{"id":"Q2646yK1Akfe","executionInfo":{"status":"ok","timestamp":1702764434909,"user_tz":300,"elapsed":300,"user":{"displayName":"William Bednar
…
